…
I assume you have to keep a dictionary with a list of values you want to optimize on. And train and test and order the result by some win, loss and performance metrics?",,
7716,6.66747354e+17,84954000.0,6.66797969432756e+17,t0p9,,,,ljw91h,gnj25b1,,How do I improve my LSTM neural net?,,https://www.reddit.com/r/algotrading/comments/ljw91h/how_do_i_improve_my_lstm_neural_net/gnj25b1/,,reddit,"model.summary()
Model: ""sequential_1""
_________________________________________________________________
Layer (type)                 Output Shape              Param #   
=================================================================
lstm_3 (LSTM)                (None, 30, 50)            10400     
_________________________________________________________________
dropout_3 (Dropout)          (None, 30, 50)            0         
_________________________________________________________________
lstm_4 (LSTM)                (None, 30, 50)            20200     
_________________________________________________________________
dropout_4 (Dropout)          (None, 30, 50)            0         
_________________________________________________________________
lstm_5 (LSTM)                (None, 50)                20200     
_________________________________________________________________
dropout_5 (Dropout)          (None, 50)                0         
_________________________________________________________________
dense_1 (Dense)              (None, 1)                 51        
=================================================================
Total params: 50,851
Trainable params: 50,851
Non-trainable params: 0

Heres the model.summary(). The dataset is split into test/train, but im not sure how to gauge better/worse ways of doing that, and I haven't heard of factor creation.",,
7717,6.66787386e+17,38586000.0,6.667979694337572e+17,hydrotoast,,,,ljw91h,gnl75yp,,H
…
